models/simple_gnn.pt (torch, 40119 bytes, 8 tensors)

conv1.lin_l.weight f4 [64, 3]
0.113949575 0.31410435 -0.2600422 -0.25285846 0.059523057 -0.47712854 0.1913047 0.36005372
0.36120746 0.3402138 -0.016766572 -0.14920433 -0.17875487 -0.45895022 -0.34715864 -0.20413351
-0.47503123 -0.06365857 -0.21061434 0.16279773 -0.043188974 -0.06047643 0.5385367 0.38766754
-0.39947954 0.24563387 0.2799686 0.15553802 -0.22327073 -0.55276966 -0.051032405 0.42417374
0.035420705 -0.43140176 0.32760507 -0.41240832 -0.38197786 0.4131726 -0.31232253 0.62575907
0.13145255 -0.20286782 -0.15576977 -0.26332358 0.27233016 0.1964657 -0.039894644 -0.002069895
-0.44227165 0.029107548 0.25934604 0.50361323 -0.47217557 -0.20157781 0.008230182 -0.3694607
0.481779 -0.4860989 -0.1657531 -0.34239653 -0.5152741 -0.5286123 -0.5128034 -0.35327998
-0.17919989 0.47763517 0.5127225 0.22403504 0.4911572 0.6043234 0.018272717 -0.21025372
-0.13914345 0.1387588 0.47784433 -0.1780565 0.064588934 0.18144074 -0.41650373 -0.09905839
-0.00814384 -0.24926732 -0.13691142 0.04965094 0.37712187 -0.1860312 -0.5140342 0.43731847
0.5822021 -0.28773144 -0.23284589 0.090626664 -0.4261672 -0.27063575 0.5854484 -0.28679603
-0.39264053 0.43352655 0.45929214 -0.25881916 -0.38233075 -0.114281535 -0.20725612 -0.34924236
0.519437 -0.47375333 0.38558084 0.34402296 0.6155905 -0.13821587 -0.3080337 -0.5205557
0.448675 0.5270348 -0.47175837 0.21744898 0.62813294 -0.2751074 0.03530497 -0.18132812
0.2638602 0.24465398 0.24609987 0.4098198 -0.3478307 -0.16458823 0.28624043 0.5850815
0.5616109 -0.20077175 -0.39503178 -0.23368065 -0.02882572 0.13342121 0.04139854 0.2167102
0.21061063 0.33152395 -0.54931754 -0.47149462 0.10131969 -0.043112908 0.23882286 0.5892561
0.37527248 -0.25514007 -0.38977605 -0.19979139 -0.54528797 -0.12002963 -0.35971963 0.1701525
-0.22573502 0.58709514 -0.117789015 0.04212149 -0.06153305 -0.41256505 0.45096993 0.037367634
0.3441181 0.032736372 -0.40977657 -0.4882882 0.39562666 0.5783876 -0.48939317 -0.4444214
-0.35841638 0.030629773 0.29365975 -0.42310593 -0.46895194 0.5922621 0.32350057 0.41184226
0.13600053 -0.19662747 -0.4002196 -0.07265222 -0.5563956 0.2534564 -0.22959304 0.44051874
0.60009295 0.45372432 -0.50730115 0.0010662889 -0.11204911 0.3528029 0.07430994 0.39574188
00000000: 655e e93d 49d2 a03e 4024 85be aa76 81be
00000010: 73ce 733d 314a f4be 61e5 433e f658 b83e
00000020: 2ff0 b83e 8130 ae3e 0d5a 89bc 05c9 18be
00000030: 840b 37be 86fb eabe c7be b1be 6008 51be
00000040: 4b37 f3be 6d5f 82bd 49ab 57be 73b4 263e
00000050: ece6 30bd 22b6 77bd 8bdd 093f 5c7c c63e
00000060: 9588 ccbe 7287 7b3e 0b58 8f3e 5c45 1f3e
00000070: 15a1 64be 5082 0dbf 5b07 51bd 4d2d d93e
00000080: 4d15 113d b1e0 dcbe dabb a73e 2f27 d3be
00000090: 9a92 c3be 5c8b d33e bde8 9fbe bf31 203f
000000a0: 7f9b 063e 95bc 4fbe 1c82 1fbe 59d2 86be
000000b0: dc6e 8b3e 4e2e 493e 9168 23bd 13a7 07bb
000000c0: 6e71 e2be f472 ee3c 01c9 843e ccec 003f
000000d0: ffc0 f1be 6a6a 4ebe e3d7 063c f429 bdbe
000000e0: bdab f63e f4e1 f8be 2ebb 29be 994e afbe
000000f0: 01e9 03bf 2353 07bf 1547 03bf 1de1 b4be
00000100: 2d80 37be 998c f43e c841 033f 7169 653e
00000110: f578 fb3e f0b4 1a3f aab0 953c c04c 57be
00000120: 9f7b 0ebe c916 0e3e 03a8 f43e 7154 36be
00000130: 3447 843d 9acb 393e fa3f d5be 20df cabd
00000140: be6d 05bc ef3f 7fbe 8232 0cbe c95e 4b3d
00000150: 1e16 c13e f77e 3ebe bf97 03bf 35e8 df3e
00000160: 320b 153f 8951 93be 276f 6ebe 799a b93d
00000170: 9632 dabe c590 8abe f2df 153f eed6 92be
00000180: 2e08 c9be 31f7 dd3e 5728 eb3e f283 84be
00000190: dbc0 c3be 700c eabd f33a 54be e5cf b2be
000001a0: d3f9 043f cc8f f2be da6a c53e c723 b03e
000001b0: 5797 1d3f 7688 0dbe 98b6 9dbe 2343 05bf
000001c0: bbb8 e53e c1eb 063f 508a f1be f2aa 5e3e
000001d0: 52cd 203f e1da 8cbe f29b 103d 14ae 39be
000001e0: af18 873e 9386 7a3e 9b01 7c3e e7d3 d13e
000001f0: de16 b2be d189 28be 1b8e 923e e7c7 153f
00000200: bbc5 0f3f 1c97 4dbe 9b41 cabe fb49 6fbe
00000210: eb23 ecbc 929f 083e 8491 293d 47e9 5d3e
00000220: 50aa 573e 82bd a93e 13a0 0cbf be67 f1be
00000230: b380 cf3d 2997 30bd fb8d 743e 7dd9 163f
00000240: b723 c03e b8a1 82be ba90 c7be 1d96 4cbe
00000250: fe97 0bbf 18d2 f5bd 2c2d b8be 753c 2e3e
00000260: 1527 67be de4b 163f 5e3b f1bd 9587 2c3d
00000270: 140a 7cbd ba3b d3be 88e5 e63e ce0e 193d
00000280: 3f30 b03e 9316 063d 3cce d1be e900 fabe
00000290: 948f ca3e 3611 143f be91 fabe 348b e3be
000002a0: 5a82 b7be 4aeb fa3c 925a 963e 57a1 d8be
000002b0: 781a f0be 7d9e 173f dea1 a53e fddc d23e
000002c0: b943 0b3e b658 49be 95e9 ccbe b0ca 94bd
000002d0: f16f 0ebf 0ac5 813e 701a 6bbe ac8b e13e
000002e0: b19f 193f 8e4e e83e 7dde 01bf b8c2 8b3a
000002f0: 017a e5bd 95a2 b43e cf2f 983d ae9e ca3e

conv1.lin_l.bias f4 [64]
0.26666838 -0.3002195 0.16566648 0.34372175 -0.46097782 0.15841128 -0.24505228 0.6092253
0.09472872 -0.39951393 0.3370731 -0.42052427 0.00556311 0.11279485 0.48729125 -0.07672753
-0.28897163 -0.09946496 0.24461453 0.1377844 -0.27319193 -0.5257265 0.5420818 0.24221261
0.60986155 0.39891976 0.4707829 0.38553518 -0.15153706 -0.16747572 0.23868154 -0.015461653
-0.4992775 -0.2839096 0.041793577 0.48289168 0.1925022 -0.3403098 0.35636362 0.50225544
0.6219947 -0.5188695 0.06470121 0.15945272 0.46952596 0.1617129 -0.15646999 0.2108692
0.44527587 -0.36596164 -0.27208638 -0.27210918 0.1107945 -0.17832148 -0.15761861 -0.34908515
0.3264116 -0.15414403 -0.15733989 0.46896952 -0.5524356 0.038920227 -0.17028871 0.506478
00000000: c288 883e 5fb6 99be 79a4 293e 4cfc af3e
00000010: 4905 ecbe 9136 223e fcee 7abe 30f6 1b3f
00000020: 2201 c23d 178d ccbe d894 ac3e f54e d7be
00000030: c04a b63b fc00 e73d 3d7e f93e 5323 9dbd
00000040: 17f4 93be 49b4 cbbd 3b7c 7a3e 5b17 0d3e
00000050: d0df 8bbe 0396 06bf dfc5 0a3f 9506 783e
00000060: e31f 1c3f 363f cc3e 750a f13e de64 c53e
00000070: 882c 1bbe c17e 2bbe ef68 743e df52 7dbc
00000080: 4da1 ffbe 995c 91be be2f 2b3d 943d f73e
00000090: 4c1f 453e 163d aebe 4b75 b63e d093 003f
000000a0: 0b3b 1f3f a2d4 04bf 1182 843d 9347 233e
000000b0: b565 f03e 1198 253e ab39 20be 18ee 573e
000000c0: 33fb e33e 535f bbbe e84e 8bbe e551 8bbe
000000d0: 3ae8 e23d e899 36be c666 21be 4abb b2be
000000e0: 6c1f a73e efd7 1dbe b51d 21be c61c f03e
000000f0: 6b6c 0dbf d16a 1f3d 2a60 2ebe 8ba8 013f

conv1.lin_r.weight f4 [64, 3]
-0.36082035 0.22855814 -0.22417487 0.19822684 -0.5564196 0.22498834 -0.19181307 0.091077864
0.04990235 0.27255982 -0.41807047 -0.18241215 0.09083715 -0.5342963 -0.43778175 0.10066617
-0.36049896 -0.417945 -0.30126902 -0.33367643 -0.30763814 -0.044189163 0.47024572 0.5088905
-0.08012681 -0.3844127 0.13500342 -0.44952428 -0.09922354 0.0973614 -0.23726943 -0.44960177
0.13323344 -0.08916057 0.24132755 0.5251474 0.39915645 -0.1561721 0.44815186 0.6302142
0.30198133 0.30499914 0.104978114 0.5616753 0.32056704 -0.2741141 0.5412347 -0.12320766
0.102509476 -0.2572218 -0.5397716 0.095405705 -0.44946393 -0.42307952 -0.06589936 -0.11999147
0.5534536 -0.13314408 0.27213326 0.13387345 -0.20242175 0.34323972 0.17176329 0.09770711
-0.06960634 0.15064418 -0.08161518 0.40726683 -0.41262355 -0.060193248 -0.4612317 -0.22276768
0.43152532 0.2421541 0.11214454 0.17592406 -0.20228277 0.20253314 -0.36230552 -0.06288125
0.21936652 0.58427644 -0.11796539 0.14743342 0.56753206 -0.5288078 0.2511847 0.04009724
0.47791776 -0.3776476 0.24389091 -0.2829845 0.15211536 0.084387474 0.33355564 0.23299544
0.13772377 -0.14426087 0.21198931 -0.09802715 -0.55714256 0.24674918 0.1060541 0.47770748
0.6210948 0.029236713 -0.4001146 -0.06064335 0.22688411 0.015083058 0.13207826 0.06390746
-0.033962384 -0.07614743 0.62424767 -0.4989368 -0.28418615 0.5697344 -0.17278023 -0.44751388
-0.28320265 -0.11412801 0.42383114 -0.41973212 0.50182366 -0.3418158 0.33458525 0.30355686
-0.20590879 -0.13751546 0.5334529 0.50022906 -0.009752257 0.13579689 0.10595786 0.31782055
-0.2767984 0.064661056 0.52978295 0.48362312 -0.45690617 0.046667308 -0.15048577 0.52310264
-0.15132102 0.5612994 0.13879266 -0.19953825 0.46557927 -0.20794459 0.0077677164 0.033934627
-0.5718301 0.11976343 0.16687402 -0.4583559 0.0030397517 0.053859986 0.012939328 0.49405196
0.13129155 -0.5372733 0.2469531 -0.45139158 -0.46365285 0.08951061 -0.27647617 -0.2890817
-0.26809505 -0.2537299 -0.08832116 -0.18031599 0.38958195 0.4570943 -0.26878595 0.52804494
-0.115684845 -0.20012693 0.05678194 -0.10962269 0.14629228 -0.23576565 0.5232596 -0.37888113
0.17733686 0.2673287 0.54482496 0.018515253 0.5227299 -0.24849975 -0.012900504 -0.111836806
00000000: 72bd b8be 250b 6a3e 198e 65be fafb 4a3e
00000010: 8471 0ebf 5863 663e a56a 44be 0887 ba3d
00000020: 6866 4c3d f68c 8b3e 550d d6be 40ca 3abe
00000030: d408 ba3d a4c7 08bf ee24 e0be 112a ce3d
00000040: 5293 b8be e3fc d5be ef3f 9abe a3d7 aabe
00000050: bf82 9dbe b2ff 34bd 0cc4 f03e a646 023f
00000060: 8619 a4bd bed1 c4be 563e 0a3e 0c28 e6be
00000070: b635 cbbd 6a65 c73d c2f6 72be 3432 e6be
00000080: 596e 083e d199 b6bd 921e 773e 0f70 063f
00000090: 3c5e cc3e 94eb 1fbe 2974 e53e b855 213f
000000a0: 4c9d 9a3e d928 9c3e c4fe d63d f4c9 0f3f
000000b0: 5d21 a43e af58 8cbe 5b8e 0a3f 4c54 fcbd
000000c0: 7df0 d13d 93b2 83be 792e 0abf 1164 c33d
000000d0: 2320 e6be e19d d8be 3ef6 86bd 16be f5bd
000000e0: 23af 0d3f ec56 08be 0d55 8b3e 1f16 093e
000000f0: a647 4fbe 1ebd af3e b7e2 2f3e aa1a c83d
00000100: c58d 8ebd 7842 1a3e dc25 a7bd 4785 d03e
00000110: 6543 d3be 328d 76bd 9026 ecbe 361d 64be
00000120: e3f0 dc3e 3ff7 773e 09ac e53d 7025 343e
00000130: 3723 4fbe d964 4f3e 1c80 b9be e3c7 80bd
00000140: 9ea1 603e 2493 153f d797 f1bd c9f8 163e
00000150: c849 113f f35f 07bf 489b 803e 013d 243d
00000160: a3b1 f43e 075b c1be 8abe 793e 58e3 90be
00000170: 21c4 1b3e 57d3 ac3d cec7 aa3e 5b96 6e3e
00000180: 7607 0d3e 1fb9 13be ba13 593e 75c2 c8bd
00000190: e5a0 0ebf d1ab 7c3e e432 d93d 1396 f43e
000001a0: 1200 1f3f d581 ef3c d2db ccbe 2965 78bd
000001b0: 4f54 683e ee1e 773c 863f 073e eae1 823d
000001c0: 241c 0bbd 2ff3 9bbd b2ce 1f3f a574 ffbe
000001d0: d980 91be 1dda 113f 4ded 30be 8a20 e5be
000001e0: f0ff 90be f2bb e9bd 6500 d93e 21e7 d6be
000001f0: 8477 003f 7b02 afbe c24e ab3e ce6b 9b3e
00000200: c1d9 52be dad0 0cbe 5f90 083f 030f 003f
00000210: eec7 1fbc 570e 0b3e 6f00 d93d 60b9 a23e
00000220: 85b8 8dbe 046d 843d db9f 073f 739d f73e
00000230: 9bef e9be 3826 3f3d f118 1abe 0eea 053f
00000240: e6f3 1abe 51b1 0f3f aa1f 0e3e c153 4cbe
00000250: 6860 ee3e 6def 54be 5488 fe3b 09ff 0a3d
00000260: 7563 12bf 8746 f53d 06e1 2a3e a0ad eabe
00000270: 9236 473b 4a9c 5c3d 7aff 533c 61f4 fc3e
00000280: 4b71 063e be8a 09bf 46e1 7c3e cc1c e7be
00000290: e863 edbe 5751 b73d 498e 8dbe 8402 94be
000002a0: c143 89be e3e8 81be b9e1 b4bd c1a4 38be
000002b0: 4977 c73e 4408 ea3e 509e 89be f42d 073f
000002c0: 2dec ecbd 13ee 4cbe 2e94 683d dc81 e0bd
000002d0: a5cd 153e 8d6c 71be 57f4 053f b5fc c1be
000002e0: cb97 353e 4fdf 883e a679 0b3f 4dad 973c
000002f0: a0d1 053f b876 7ebe a35c 53bc b20a e5bd

conv2.lin_l.weight f4 [64, 64]
0.13042237 0.06894565 0.12711978 0.061928175 0.12041479 -0.025867555 0.00062938035 0.036769465
0.099503905 -0.04823205 0.063318156 0.15013471 0.06249995 0.14042065 0.09524858 0.16334099
-0.09037042 0.114180036 0.13307078 0.044914097 0.09079634 -0.00048847497 0.14240777 -0.063789286
0.016584214 -0.013308655 0.11072922 -0.063218355 0.11376323 0.14316264 0.030766182 0.18024087
-0.046596274 -0.034715205 0.01581818 0.16256209 0.14117822 0.14635855 -0.053720508 0.0193559
0.014121945 -0.03979008 0.13321885 0.11819964 0.05472992 -0.040205922 0.010640711 -0.049896054
0.011754156 -0.123674825 -0.020121127 0.06278869 0.15782572 -0.034399625 0.03768766 0.02226404
-0.005538638 0.057644956 0.16884583 -0.06151447 0.07882173 -0.0039952965 0.053965062 0.115446
0.03764847 0.0260026 0.027667403 0.009812191 0.06578757 0.12025744 -0.019800678 -0.05110441
0.0143241435 -0.033707023 0.024461672 0.06518324 -0.10585667 -0.01190117 0.09822512 -0.111005425
0.049730882 -0.043775305 -0.06024681 0.1160713 -0.008493915 -0.11906077 0.097219095 0.107024
-0.019102678 -0.10937561 -0.038190722 0.04369387 -0.11891295 0.124104515 -0.0010544509 -0.03296721
-0.081092015 0.07953794 0.09815538 0.05351855 0.07902238 0.12279984 0.10820824 0.0050212443
-0.07724245 -0.09868333 -0.09309341 -0.07939391 -0.066503435 0.046488583 -0.023584813 -0.05445108
-0.09698868 0.1130968 0.09738229 0.12380488 -0.11252496 0.07703453 0.00071413815 -0.124675795
0.05684614 0.11241813 -0.05319968 -0.024578616 -0.118751824 0.044988304 0.042120352 0.049903035
-0.07326381 0.044101328 0.027536198 -0.011880875 -0.014472902 0.022849262 0.0040008873 0.08056715
0.06423144 0.040158913 -0.0841077 -0.008290961 0.05516404 -0.06665167 -0.111280635 0.025037855
0.116265714 -0.12079473 -0.07929157 0.09850986 0.09428133 -0.08316623 -0.03476675 0.06419678
-0.027746782 0.028849795 0.041153282 0.046814546 -0.12392831 0.058064163 0.114722416 -0.0012433827
0.09505038 -0.11554381 -0.0146677345 0.0020297766 0.03381537 0.083517164 0.09779155 -0.04463078
0.06870727 -0.036805227 -0.011817545 0.10417479 0.030056193 -0.11582807 -0.12051991 -0.08869095
0.07744877 0.06707306 -0.06251623 -0.013768658 0.07240099 0.007885918 -0.09906551 0.038424432
0.06793082 0.050872386 -0.08508551 0.11797108 -0.05037649 -0.0047162324 0.12065925 -0.09517373
0.08632706 -0.11157316 -0.02116499 -0.13272077 -0.045820385 0.05508454 0.02978234 -0.019953499
-0.061053727 0.11809553 0.052178532 -0.12759726 -0.121286094 -0.13537392 -0.0979544 0.0984393
0.029912397 0.08820391 -0.12267236 -0.02835809 -0.07733357 -0.08092792 -0.007877878 0.063418575
-0.13510808 -0.11969184 -0.07031408 0.10212008 0.058688078 -0.06690544 -0.06432861 -0.078525774
0.02013553 0.12013498 -0.06689568 0.03414524 -0.07746019 0.08649156 -0.0507939 0.06037162
0.015064639 -0.034446806 -0.102901906 -0.095175706 -0.07040051 0.061583467 -0.10416484 0.06091
-0.06902305 0.0024506599 -0.024747238 -0.112267494 0.032002814 -0.09951004 -0.10269402 0.0723652
0.018673884 -0.03541964 -0.08673016 0.078116216 0.11961496 -0.01697356 0.097402215 0.093355924
00000000: 718d 053e 6033 8d3d b02b 023e 66a8 7d3d
00000010: 089c f63d 32e8 d3bc 00fd 243a 949b 163d
00000020: b4c8 cb3d f88e 45bd f3ac 813d eabc 193e
00000030: f3ff 7f3d 6eca 0f3e b011 c33d dc42 273e
00000040: 2014 b9bd 39d7 e93d b543 083e d8f7 373d
00000050: 6ef3 b93d 000d 00ba 58d3 113e f5a3 82bd
00000060: 9edb 873c 8b0c 5abc 00c6 e23d a078 81bd
00000070: b2fc e83d 3a99 123e 5c09 fc3c 1091 383e
00000080: bcdb 3ebd 8831 0ebd 2195 813c ad76 263e
00000090: 0691 103e 04df 153e 090a 5cbd 4490 9e3c
000000a0: bb5f 673c ecfa 22bd 866a 083e a712 f23d
000000b0: 7b2c 603d f7ae 24bd 6056 2e3c ce5f 4cbd
000000c0: 8194 403c 3a49 fdbd 10d5 a4bc 5b97 803d
000000d0: 119d 213e 9fe6 0cbd 605e 1a3d 1363 b63c
000000e0: 777d b5bb 1e1d 6c3d ece5 2c3e 99f6 7bbd
000000f0: 4a6d a13d faea 82bb 780a 5d3d f46e ec3d
00000100: 4835 1a3d 6803 d53c c0a6 e23c 50c3 203c
00000110: a2bb 863d 8849 f63d 0835 a2bc dc52 51bd
00000120: d0af 6a3c 6010 0abd d863 c83c ca7e 853d
00000130: 62cb d8bd 20fd 42bc 402a c93d d056 e3bd
00000140: 9cb2 4b3d bc4d 33bd 5cc5 76bd cab6 ed3d
00000150: 102a 0bbc 22d6 f3bd ce1a c73d 662f db3d
00000160: 387d 9cbc 5200 e0bd e06d 1cbd 58f8 323d
00000170: a288 f3bd 822a fe3d 8035 8aba a008 07bd
00000180: 9213 a6bd cae4 a23d b005 c93d 4436 5b3d
00000190: 7cd6 a13d 7c7e fb3d 489c dd3d 4089 a43b
000001a0: 4a31 9ebd 7c1a cabd c2a7 bebd 4699 a2bd
000001b0: f432 88bd d06a 3e3d f034 c1bc 1808 5fbd
000001c0: 00a2 c6bd 4c9f e73d 5e70 c73d 6a8d fd3d
000001d0: 7c73 e6bd 48c4 9d3d 0035 3b3a 0656 ffbd
000001e0: 80d7 683d 7a3b e63d e8e7 59bd 1859 c9bc
000001f0: 2834 f3bd a845 383d 6486 2c3d 2067 4c3d
00000200: 560b 96bd 98a3 343d 9893 e13c 00a8 42bc
00000210: c01f 6dbc 602e bb3c e019 833b 6400 a53d
00000220: c68b 833d ac7d 243d a840 acbd d0d6 07bc
00000230: b0f3 613d ac80 88bd 1ae7 e3bd 301c cd3c
00000240: b81c ee3d 3a63 f7bd 9e63 a2bd 8abf c93d
00000250: 9216 c13d 0e53 aabd 9467 0ebd 9a79 833d
00000260: 384d e3bc 6856 ec3c 5890 283d 9cc0 3f3d
00000270: 20ce fdbd b0d4 6d3d 96f3 ea3d 00f9 a2ba
00000280: c6a9 c23d 3ca2 ecbd f050 70bc 0006 053b
00000290: fc81 0a3d 0c0b ab3d f046 c83d c4ce 36bd
000002a0: 66b6 8c3d 14c1 16bd 609e 41bc 9859 d53d
000002b0: 6838 f63c 4437 edbd 24d3 f6bd 9aa3 b5bd
000002c0: 769d 9e3d 9a5d 893d 8208 80bd f095 61bc
000002d0: f846 943d f033 013c dce2 cabd f062 1d3d
000002e0: 501f 8b3d 905f 503d 5041 aebd d29a f13d
000002f0: 9457 4ebd a08a 9abb 321c f73d 72ea c2bd
00000300: 3ecc b03d 7880 e4bd 3362 adbc f4e7 07be
00000310: 28ae 3bbd 54a0 613d 18fa f33c 8575 a3bc
00000320: 7913 7abd 12dc f13d 28b9 553d dba8 02be
00000330: d864 f8bd 769f 0abe 519c c8bd 8b9a c93d
00000340: d80a f53c 40a4 b43d a53b fbbd 3a4f e8bc
00000350: 1061 9ebd 8abd a5bd 3712 01bc 99e1 813d
00000360: c659 0abe ff20 f5bd d400 90bd 5524 d13d
00000370: e962 703d b805 89bd b8be 83bd 1fd2 a0bd
00000380: 44f3 a43c 5409 f63d 9a00 89bd e1db 0b3d
00000390: 73a3 9ebd 7d22 b13d 440d 50bd 3b48 773d
000003a0: add1 763c 1818 0dbd 3cbe d2bd 7beb c2bd
000003b0: 252e 90bd f23e 7c3d 6054 d5bd c47c 793d
000003c0: f55b 8dbd 409b 203b b8ba cabc 80ec e5bd
000003d0: 6215 033d ebcb cbbd 3e51 d2bd 3534 943d
000003e0: f9f9 983c 2f14 11bd 959f b1bd 65fb 9f3d
000003f0: b0f8 f43d 230c 8bbc d07a c73d 6431 bf3d

conv2.lin_l.bias f4 [64]
0.09636351 -0.10887329 -0.03204803 0.0072444 0.062971644 0.13004798 -0.06423248 0.13676189
-0.088265836 -0.13388295 -0.013921129 0.0640559 -0.12686896 -0.10786543 -0.011028491 0.13946596
-0.073565125 -0.065110564 -0.039249554 0.09810746 0.10634607 0.08846305 -0.02447851 -0.013424394
0.07114333 0.0008190365 0.025744496 0.10177976 -0.06888455 -0.021228658 0.086084895 -0.0024605356
0.16813146 -0.066962875 0.08653196 0.108263925 -0.022645203 0.06057931 0.09570837 0.046910346
0.010829062 0.09629296 0.11483902 -0.1149784 -0.0020350262 -0.05975203 -0.011533415 -0.102745175
0.10720245 0.0421177 0.14761914 -0.0041573225 0.022803672 0.037466396 -0.023882478 0.16846551
0.09976326 0.01809664 0.058972344 0.06161726 0.030109972 -0.08428916 0.07472833 -0.0045012515
00000000: 3b5a c53d f6f8 debd cc44 03bd 6f62 ed3b
00000010: 47f7 803d 4c2b 053e 528c 83bd 4f0b 0c3e
00000020: b8c4 b4bd 9d18 09be 7215 64bc bd2f 833d
00000030: f0e9 01be 8de8 dcbd d8b0 34bc 2ad0 0e3e
00000040: 50a9 96bd b058 85bd 24c4 20bd 90ec c83d
00000050: f8cb d93d 1e2c b53d 2887 c8bc fdf1 5bbc
00000060: 98b3 913d 9cb4 563a 1fe6 d23c e871 d03d
00000070: 5813 8dbd b9e7 adbc 474d b03d f040 21bb
00000080: a72a 2c3e d523 89bd ab37 b13d 7ab9 dd3d
00000090: 6f82 b9bc 0322 783d c002 c43d 1025 403d
000000a0: 616c 313c 3e35 c53d b830 eb3d cc79 ebbd
000000b0: 135e 05bb 8bbe 74bd a6f6 3cbc 106c d2bd
000000c0: f58c db3d 9c83 2c3d 7929 173e 263a 88bb
000000d0: c4ce ba3c 5d76 193d 30a5 c3bc 3982 2c3e
000000e0: ae50 cc3d 683f 943c fc8c 713d 6162 7c3d
000000f0: 30a9 f63c cc9f acbd 2b0b 993d 3c7f 93bb

conv2.lin_r.weight f4 [64, 64]
0.13023746 0.09124528 0.147762 0.0046422775 0.09957908 0.072504885 0.050031647 0.020838026
0.060246103 -0.12285578 0.14433293 0.16820055 0.1158256 0.1435999 0.116987154 0.043960605
-0.10191533 0.15442787 -0.04205008 0.083939746 -0.03822197 0.011654615 0.16705953 0.18144721
0.1209999 0.0021029324 0.1302306 -0.054072853 -0.05248615 0.1011869 0.17524081 0.10968998
-0.04465435 -0.06638597 0.07649566 0.028953603 0.069900885 0.07243504 0.1746706 0.0007931936
0.16820794 -0.110788524 0.0049034287 0.1781244 -0.027750125 0.121409655 -0.048234284 0.1615694
0.073454775 -0.079999045 0.013066649 0.04573032 -0.06128771 0.17018105 -0.10171029 -0.057162054
0.003724398 -0.022079667 0.11190989 0.10686801 -0.07003379 -0.02727326 0.1780274 0.08963868
-0.07066113 -0.10584016 0.039160907 0.01662317 -0.09374596 -0.04994732 0.013309225 -0.12467992
-0.039283097 0.076454625 0.06228736 -0.031720623 -0.02137144 -0.014678702 -0.098207176 0.06585345
0.04551196 0.018132389 -0.030025199 0.01399979 -0.09601131 0.053371757 -0.012231812 -0.118045405
-0.013051152 -0.04818088 0.09313893 -0.04272352 -0.028033495 0.095054075 0.11480698 -0.09508383
0.10494958 -0.029046953 0.03471099 0.07151887 0.056083724 -0.04906538 -0.06861937 -0.12003289
0.0044514835 0.0017917752 0.008685142 -7.277727e-05 -0.10778943 -0.05648768 -0.02904576 0.10756789
-0.110941455 -0.009789422 -0.115663394 -0.10318197 0.022008404 -0.0050460696 0.0077837855 -0.076789826
-0.0021402538 -0.11367458 -0.072419524 0.033618286 -0.0736087 0.004277125 0.057912707 0.10725771
-0.03569229 -0.1010426 0.1243231 0.007218629 -0.11025335 0.0015330762 0.103290394 -0.027388752
-0.012298077 0.10633516 -0.060197234 0.09511283 0.075056195 0.086255774 0.027829483 0.030898288
0.060436964 -0.014169112 0.017071202 0.08632453 0.049240127 0.08468506 -0.03356129 0.10211578
-0.07702775 -0.06214802 -0.10337219 0.04821354 -0.114363015 0.06418656 -0.058482185 -0.07391831
-0.060821623 0.02376628 0.050675705 -0.11406402 -0.054845586 -0.10810204 0.047313124 0.05579403
-0.009677663 -0.036327332 -0.02092889 -0.1124247 0.10650796 -0.11122422 0.015667975 0.0909349
-0.06265555 0.030485258 -0.036745235 -0.010961756 -0.053812817 0.068856135 0.013390183 0.008691236
0.083890006 -0.068215996 -0.0054171234 0.0654992 0.06639777 0.11111125 -0.03448759 -0.06824182
-0.027023604 -0.02226451 -0.06926738 0.04628363 0.06762123 -0.0007799037 0.090380445 0.050418317
-0.13441531 -0.04220234 -0.121144444 0.05775076 -0.07508199 0.0048198397 0.084099196 0.07308
0.09072344 0.056320954 -0.108824305 -0.12044186 -0.106874734 -0.05648786 0.040572837 0.027829804
0.07507497 0.08154188 -0.017621232 -0.024198283 0.040377386 0.049628492 0.070987016 0.10544519
-0.07116538 -0.11985296 -0.051907413 -0.09695974 -0.13868992 -0.018683195 0.064816 0.00039039462
0.060817752 0.061092943 -0.14276193 -0.035426956 -0.06956337 0.028240468 -0.004682377 -0.11359497
-0.03615213 0.06891194 0.11241394 -0.024798926 0.085178934 -0.0946633 -0.0050070286 -0.08525275
0.08912049 -0.008457803 0.105814494 0.07469149 0.082669586 0.10091054 -0.008457205 0.086583376
00000000: f85c 053e cede ba3d ec4e 173e 3f1e 983b
00000010: 1ef0 cb3d 717d 943d fced 4c3d 82b4 aa3c
00000020: 9ec4 763d d09b fbbd 03cc 133e c43c 2c3e
00000030: f935 ed3d da0b 133e f696 ef3d 0910 343d
00000040: fcb8 d0bd 5722 1e3e b43c 2cbd 9ae8 ab3d
00000050: a48e 1cbd 00f3 3e3c a711 2b3e 4ccd 393e
00000060: ccce f73d 5ad1 093b 2c5b 053e 7f7b 5dbd
00000070: b8fb 56bd 143b cf3d 5472 333e 24a5 e03d
00000080: 7be7 36bd 5ef5 87bd c2a9 9c3d 1b30 ed3c
00000090: 3228 8f3d d258 943d dadc 323e 52ee 4f3a
000000a0: b43e 2c3e 18e5 e2bd f1ac a03b 3e66 363e
000000b0: 3b54 e3bc a0a5 f83d 5091 45bd 7372 253e
000000c0: 756f 963d 8ad6 a3bd 8015 563c b74f 3b3d
000000d0: d208 7bbd f143 2e3e 7c4d d0bd c222 6abd
000000e0: 0815 743b 6be0 b4bc 0331 e53d 9ddd da3d
000000f0: e06d 8fbd 2c6c dfbc d14c 363e 7c94 b73d
00000100: c8b6 90bd bac2 d8bd 3067 203d 502d 883c
00000110: e2fd bfbd 9095 4cbd f00e 5a3c 3058 ffbd
00000120: 50e7 20bd 3e94 9c3d 0821 7f3d 7ced 01bd
00000130: 2813 afbc f07e 70bc d820 c9bd 2cde 863d
00000140: c06a 3a3d 608a 943c 68f7 f5bc 605f 653c
00000150: 94a1 c4bd 589c 5a3d f067 48bc cac1 f1bd
00000160: 80d4 55bc 5059 45bd a0bf be3d dcfe 2ebd
00000170: 80a6 e5bc b6ab c23d ec1f eb3d 50bb c2bd
00000180: ceef d63d e0f3 edbc 1c2d 0e3d 7c78 923d
00000190: 0cb8 653d c8f8 48bd 5088 8cbd ced3 f5bd
000001a0: c0dd 913b 00da ea3a 204c 0e3c 00a0 98b8
000001b0: b4c0 dcbd a05f 67bd 60f1 edbc 8e4c dc3d
000001c0: 4635 e3bd d063 20bc eee0 ecbd 1251 d3bd
000001d0: f84a b43c 8059 a5bb 200f ff3b fc43 9dbd
000001e0: 8043 0cbb 38ce e8bd b050 94bd 54b3 093d
000001f0: 28c0 96bd 2027 8c3b e035 6d3d eea9 db3d
00000200: 1432 12bd 6cef cebd 1c9d fe3d 408a ec3b
00000210: 82cc e1bd 80f1 c83a ea89 d33d 605e e0bc
00000220: e07d 49bc 40c6 d93d 6091 76bd 84ca c23d
00000230: 10b7 993d dea6 b03d a8fa e33c 681e fd3c
00000240: c08c 773d 9025 68bc e8d8 8b3c eaca b03d
00000250: 04b0 493d 5c6f ad3d 9077 09bd 1422 d13d
00000260: bac0 9dbd ec8e 7ebd ccb4 d3bd 907b 453d
00000270: 2837 eabd 3e74 833d 048b 6fbd 7c62 97bd
00000280: 1820 79bd 80b1 c23c 5491 4f3d 669a e9bd
00000290: c4a5 60bd 9a64 ddbd 68cb 413d 4888 643d
000002a0: 108f 1ebc f8cb 14bd 1073 abbc ec3e e6bd
000002b0: d820 da3d 86c9 e3bd 205a 803c 143c ba3d
000002c0: 8e51 80bd 38bc f93c 2c82 16bd f098 33bc
000002d0: d46a 5cbd 7204 8d3d 8062 5b3c b065 0e3c
000002e0: 86ce ab3d d4b4 8bbd 2082 b1bb 7224 863d
000002f0: 8efb 873d 4c8e e33d dc42 0dbd 5ec2 8bbd
00000300: 9b60 ddbc 1064 b6bc 0edc 8dbd e793 3d3d
00000310: 007d 8a3d 7472 4cba 6219 b93d 7083 4e3d
00000320: 2ba4 09be 5cdc 2cbd 941a f8bd 108c 6c3d
00000330: 96c4 99bd bfef 9d3b 333c ac3d f8aa 953d
00000340: 36cd b93d cdb0 663d 47df debd 39aa f6bd
00000350: 24e1 dabd d05f 67bd b42f 263d 54fb e33c
00000360: e8c0 993d 6eff a63d 675a 90bc 7a3b c6bc
00000370: c262 253d 3f47 4b3d a461 913d a6f3 d73d
00000380: 28bf 91bd 7875 f5bd de9c 54bd d492 c6bd
00000390: bb04 0ebe 800d 99bc 40be 843d e1ad cc39
000003a0: 091c 793d 983c 7a3d 2f30 12be db1b 11bd
000003b0: 3d77 8ebd 8e58 e73c a06e 99bb 7ba4 e8bd
000003c0: 4214 14bd b421 8d3d 4839 e63d 1e27 cbbc
000003d0: 4b72 ae3d d5de c1bd 0012 a4bb fe98 aebd
000003e0: ce84 b63d 9992 0abc 45b5 d83d daf7 983d
000003f0: ac4e a93d 2faa ce3d 1790 0abc a052 b13d

lin.weight f4 [6, 64]
-0.08733207 0.006854534 -0.07187641 -0.06888408 -0.06946055 -0.083941296 -0.025784671 -0.07120653
0.024506912 0.0885999 -0.100079715 0.016319958 0.071864404 0.07017001 0.045336768 0.07006286
-0.11327785 -0.06959386 0.08847794 -0.005004501 0.077849016 0.032142226 0.04813014 0.10761939
-0.073358834 -0.01643872 0.011885405 0.055277787 -0.02822344 -0.050933335 0.030634677 0.11859427
0.0179795 0.09427327 -0.0756419 0.12212239 -0.11414278 -0.04511433 -0.048656404 0.047108993
0.06372943 0.07185316 -0.012819838 -0.023657724 0.047744844 0.13925809 -0.005242347 0.012684718
0.06291495 -0.07304934 0.05259169 0.023417756 0.054578263 0.09754053 -0.003532258 -0.051124614
-0.10828008 0.09142968 -0.013527835 0.033272382 0.095922574 0.054230988 0.025886629 0.022361951
0.10961546 0.04388629 0.09035094 0.0779933 -0.062497176 -0.08389281 0.0923302 0.08546733
0.057820335 -0.030231407 -0.09348044 -0.020993724 -0.11724408 0.04422932 -0.09927616 -0.06308049
0.04400952 0.0844623 0.07525568 0.09560572 0.10628477 0.07079987 -0.037363604 0.07182242
-0.06530819 0.107278235 0.13264632 -0.07031755 0.023345247 -0.08187886 0.07497105 0.07422888
-0.05189387 0.07018406 0.084671125 -0.06917192 -0.05810586 0.03956632 -0.027581828 0.041184798
-0.12432509 -0.00086774235 -0.03338426 0.045603693 0.039788093 0.103990644 0.039581902 0.012138933
-0.1066907 0.09956388 -0.118056335 -0.098424524 0.04205646 0.011773068 0.109559566 -0.0058798436
0.014884373 -0.021917284 0.054475944 -0.044203315 -0.106082685 0.051146254 -0.08373432 -0.02030374
0.09185332 0.02025491 0.108648345 -0.09207283 0.070858784 0.15352528 0.069524616 0.11452089
-0.08162011 -0.023341656 0.152635 0.13000663 -0.07706877 -0.04761718 -0.024294013 0.055771936
-0.09290962 -0.05476202 0.055153415 0.16932449 -0.0018770031 -0.06169171 0.056868225 0.17715578
-0.074545704 0.13965951 0.11036436 0.1267377 -0.02482225 -0.10696361 0.13923168 0.17619929
0.08357716 -0.005772887 -0.077480294 -0.025870085 -0.016199056 0.019700676 0.08261524 -0.10441989
-0.01763335 0.10030633 0.11574233 0.014370397 -0.09955628 -0.023436707 0.09844058 -0.11283332
0.17576101 0.0043020546 0.17959961 0.11033097 0.08252444 0.089007944 -0.012802652 0.073797815
0.074163325 -0.11666629 0.07076084 0.14009723 -0.039583214 0.07136427 0.082692094 -0.051930103
0.04064029 0.05194348 0.020914093 0.004884867 0.14486238 0.056206133 -0.060341522 -0.057921976
-0.032175004 -0.021531716 -0.047760423 -0.015425816 0.051134028 -0.090632215 0.0052422346 -0.06311294
-0.043074027 -0.062864915 -0.05360514 -0.062315803 0.030795721 0.09875669 -0.098423794 -0.0384372
-0.0074277436 -0.11051585 0.04551702 -0.044753432 0.11108333 -0.026243385 -0.1608934 0.05045711
-0.03577444 0.08272966 -0.07959143 0.058483105 0.10057688 -0.07133201 0.1154438 -0.049432546
-0.031059308 0.104692474 -0.113479696 0.005897239 0.10245724 -0.09743743 -0.06561398 -0.08371781
0.029025253 0.003989339 0.12590663 0.018956672 -0.13229065 0.11210147 0.07202225 -0.11601696
0.08678642 0.014595434 0.006136828 0.022232803 0.023046652 0.07821551 -0.06824823 -0.055884235
00000000: 28db b2bd 009c e03b f033 93bd 1913 8dbd
00000010: 5541 8ebd 6ae9 abbd 603a d3bc bbd4 91bd
00000020: b8c2 c83c dd73 b53d 98f6 ccbd 6fb1 853c
00000030: a52d 933d 4bb5 8f3d 0cb3 393d 1e7d 8f3d
00000040: 38fe e7bd 3a87 8ebd ec33 b53d ccfc a3bb
00000050: 4e6f 9f3d 91a7 033d 1c24 453d 8e67 dc3d
00000060: 283d 96bd 7faa 86bc 00bb 423c f66a 623d
00000070: d834 e7bc 799f 50bd 93f5 fa3c 8de1 f23d
00000080: bf49 933c 5812 c13d 24ea 9abd 4e1b fa3d
00000090: b1c3 e9bd cec9 38bd f04b 47bd 5cf5 403d
000000a0: 9384 823d c027 933d 4c0a 52bc d8cd c1bc
000000b0: 1990 433d ac99 0e3e fec7 abbb 90d3 4f3c
000000c0: 8ed9 803d e49a 95bd 626a 573d 98d6 bf3c
000000d0: 758d 5f3d 54c3 c73d 757d 67bb 0b68 51bd
000000e0: f2c1 ddbd 7c3f bb3d daa3 5dbc 9f48 083d
000000f0: 0e73 c43d 5021 5e3d 3210 d43c 6930 b73c
00000100: 127e e03d 1cc2 333d ea09 b93d f4ba 9f3d
00000110: 0afd 7fbd fecf abbd 9e17 bd3d 7f09 af3d
00000120: 04d5 6c3d dba7 f7bc ac72 bfbd 08fb abbc
00000130: aa1d f0bd ce29 353d 4d51 cbbd 5830 81bd
00000140: 5443 343d 92fa ac3d a61f 9a3d efcc c33d
00000150: d4ab d93d 86ff 903d 940a 19bd a217 933d
00000160: 4dc0 85bd b1b4 db3d 70d4 073e a602 90bd
00000170: 883e bf3c 1bb0 a7bd 6c8a 993d 5005 983d
00000180: ab8e 54bd a9bc 8f3d 0e68 ad3d 02aa 8dbd
00000190: 6900 6ebd 4b10 223d 49f3 e1bc 64b1 283d
000001a0: 279e febd 3479 63ba efbd 08bd f0ca 3a3d
000001b0: d7f8 223d 0cf9 d43d a220 223d 60e2 463c
000001c0: a780 dabd 26e8 cb3d 85c7 f1bd cc92 c9bd
000001d0: 6543 2c3d d4e3 403c c460 e03d b4ab c0bb
000001e0: 96dd 733c e08b b3bc 2b22 5f3d 890e 35bd
000001f0: e141 d9bd bc7e 513d e67c abbd 0754 a6bc
00000200: 981d bc3d a0ed a53c 0683 de3d ae90 bcbd
00000210: 691e 913d bb35 1d3e ec62 8e3d ee89 ea3d
00000220: 7228 a7bd 0037 bfbc 594c 1c3e 7520 053e
00000230: 3bd6 9dbd 3b0a 43bd 3d04 c7bc 1d71 643d
00000240: 6647 bebd 244e 60bd 8ce8 613d 6663 2d3e
00000250: c605 f6ba 72b0 7cbd a8ee 683d 5368 353e
00000260: 6bab 98bd e702 0f3e b606 e23d 87c7 013e
00000270: 0858 cbbc bd0f dbbd c092 0e3e 966d 343e
00000280: 812a ab3d 7c2a bdbb fdad 9ebd 80ed d3bc
00000290: e2b3 84bc 5063 a13c 2e32 a93d 18da d5bd
000002a0: d173 90bc 686d cd3d 510a ed3d d071 6b3c
000002b0: 2ae4 cbbd 56fe bfbc 379b c93d 2815 e7bd
000002c0: b2fa 333e 40f8 8c3b f6e8 373e 34f5 e13d
000002d0: 9302 a93d cc49 b63d 37c2 51bc 4f23 973d
000002e0: f1e2 973d bcee eebd 0feb 903d a675 0f3e
000002f0: 0222 22bd 6e27 923d 795a a93d a9b4 54bd
00000300: 6f76 263d b0c2 543d 0854 ab3c 3c11 a03b
00000310: ce56 143e 6738 663d ac28 77bd 983f 6dbd
00000320: f0c9 03bd 4863 b0bc 6fa0 43bd 90bc 7cbc
00000330: ea71 513d 629d b9bd 0dc7 ab3b 5b41 81bd
00000340: 646e 30bd 52bf 80bd 1091 5bbd db3e 7fbd
00000350: 4f47 fc3c f340 ca3d 6a92 c9bd 5370 1dbd
00000360: 6e64 f3bb 2256 e2bd 0e70 3a3d 604f 37bd
00000370: a87f e33d 5efc d6bc 3dc1 24be 1dac 4e3d
00000380: 3888 12bd 2b6e a93d d500 a3bd fb8b 6f3d
00000390: 40fb cd3d 8416 92bd cd6d ec3d c879 4abd
000003a0: 1770 febc 0269 d63d 0b68 e8bd a03d c13b
000003b0: 1ad5 d13d 468d c7bd 9f60 86bd 3e74 abbd
000003c0: 5ec6 ed3c 00b9 823b abed 003e 064b 9b3c
000003d0: 3377 07be 7595 e53d 6780 933d 4d9a edbd
000003e0: 14bd b13d b021 6f3c 7217 c93b 9121 b63c
000003f0: 55cc bc3c 742f a03d bac5 8bbd dee6 64bd

lin.bias f4 [6]
-0.07372096 0.028471582 0.016615678 0.084387004 0.11700469 0.12966736
00000000: 04fb 96bd 3c3d e93c 9a1d 883c 18d3 ac3d
00000010: 28a0 ef3d 85c7 043e
